handwritten_model.pth (torch, 655497 bytes, 9 tensors)

conv_layers.0.bias f4 [32]
000000 cd 24 65 bb 1c 6a 32 3d 2a a7 5f be 0e d4 47 bd
       -0.0034964562 0.043558225 -0.21841112 -0.048786215
000010 c3 de eb bc b5 b5 cd bd b9 09 14 3e 92 94 92 be
       -0.028792745 -0.100444235 0.14456834 -0.28628975
000020 2b 18 83 be 4a 75 db be ca e8 53 bd 09 42 7b be
       -0.25604376 -0.42862922 -0.051735677 -0.24536909
000030 c9 b7 87 be 35 89 a8 bd 3b 18 ac be 28 59 15 bf
       -0.26507404 -0.08229295 -0.33612236 -0.58339167
000040 f7 66 2c be 85 ac 45 be ba 51 da bc e0 d5 cb bd
       -0.16836153 -0.19304092 -0.026650298 -0.09952903
000050 b6 73 75 3e 20 a1 82 be 30 6a 53 bd b0 db 8c be
       0.23969921 -0.25513554 -0.05161494 -0.27511358
000060 e1 a8 31 bd 17 b7 34 3e db 4f e7 bc 30 2a ba 3c
       -0.043373946 0.17647968 -0.02823632 0.022725195
000070 ef 33 3d 3d 14 ce 1a be 4d f0 94 3e 85 e8 43 be
       0.046192106 -0.15117675 0.29089585 -0.19131668

conv_layers.3.weight f4 [64, 32, 3, 3]
000000 85 13 86 bd cf bd 19 bc b0 78 86 3d b6 f6 6c bd
       -0.06546692 -0.009383633 0.06565988 -0.05785247
000010 26 c2 f6 bc e5 4c a3 3c 0a 12 47 3b 25 10 4d bc
       -0.030121874 0.019934127 0.0030375742 -0.012516056
000020 2f 8d d3 3b 0e 2d 09 bd a3 87 31 3b c0 29 0c 3d
       0.0064560394 -0.033490233 0.0027088902 0.034219503
000030 0e e8 49 b9 53 35 63 3d 88 4b 5f bd 45 e6 64 3c
       -0.00019255301 0.055470776 -0.05451539 0.013970916
000040 d2 95 b5 3c 90 34 28 bd 74 50 35 bd a5 7f bd bc
       0.022166166 -0.041065753 -0.04426618 -0.023132155
000050 2b ef a3 3c 4c d5 2c 3d fa 7a c2 3b 1d fb 6f bd
       0.020011505 0.042195603 0.00593507 -0.05858909
000060 6b b8 91 bd 1f 14 01 bc ff 62 e7 b9 e3 b4 3a 3d
       -0.07115253 -0.007878332 -0.0004413351 0.045582663
000070 5d 6f d1 3c bc 05 ba 3b 8e 29 b9 bb aa e9 61 3b
       0.025565797 0.005676953 -0.0056507057 0.003447155
000080 da e4 21 bd 0e 48 df 38 9a da 2f 3c 67 84 6c 3d
       -0.03952489 0.0001064689 0.010733271 0.057743456
000090 34 cf 7f bd f6 ed a1 bd 46 20 0c bd d9 73 f1 bc
       -0.062453464 -0.079067156 -0.034210466 -0.029474186
0000a0 85 0a 81 bd bd e4 b1 bd c8 3a 90 bd 39 18 8c bd
       -0.063008346 -0.086862065 -0.07042462 -0.068405576
0000b0 dd f8 7c 3c 30 28 19 bd a0 98 a0 bd 51 29 27 bd
       0.015440193 -0.03739184 -0.07841611 -0.040810887
0000c0 d1 8c 67 bb bf 6f a3 bd a6 a6 4a 3c b7 eb 86 3c
       -0.0035331736 -0.07980298 0.012368834 0.01646982
0000d0 d4 64 08 bc ae 36 b1 3c 01 d8 89 bd ec c0 c2 bb
       -0.008324821 0.021632519 -0.067306526 -0.0059434082
0000e0 d5 1f b1 bc 64 17 f0 bc f8 11 0d 3d 61 76 82 bd
       -0.021621624 -0.029308029 0.034440964 -0.06370235
0000f0 3b 1c f8 bc d9 f4 e9 bc e8 4d 41 bd 52 b1 88 bc
       -0.030286899 -0.028559135 -0.047193438 -0.016686115
000100 cc 7c 1c bd b8 35 ae 3c 18 f1 18 3c 3f 83 07 bd
       -0.038204953 0.02126585 0.009334825 -0.03308415
000110 f3 b4 d2 bc 50 d2 24 bb ac 4e 80 ba b7 11 17 bd
       -0.025721049 -0.002514977 -0.0009789071 -0.03688213
000120 a1 ce 98 bb f1 05 61 bd dc a0 d0 bc d9 9f 66 bc
       -0.004663304 -0.054937307 -0.025467329 -0.014076197
000130 f8 31 58 bd 52 65 7f bc 72 38 83 bd 62 8c 6f bd
       -0.05278203 -0.0155881215 -0.064072505 -0.05848349
000140 17 b6 3d bd fd ae 93 bc a8 0e 85 bc 6a fb d0 3b
       -0.046316233 -0.018027777 -0.01624234 0.006377627
000150 85 e5 34 bd 5b be 69 bc c4 9e 1c 3c c5 72 04 39
       -0.0441642 -0.014266576 0.009559337 0.00012631256
000160 8b 21 14 bd 4a ae 78 bb 6a 64 9f bd 78 5b 8f bd
       -0.0361648 -0.0037945681 -0.07782824 -0.06999868
000170 fb c2 b2 3b 4e 0c 3a bd 6a 25 85 bd f6 6c 48 3c
       0.0054553724 -0.04542189 -0.06501277 0.01223301
000180 4c eb 5d bd a2 7f 08 bc 9c f9 f7 3c 4b 2b 90 3c
       -0.054179475 -0.008331211 0.03027039 0.017598769
000190 ba 05 bc 3b 7d 9d 85 bd a6 62 ea bc 68 df eb bc
       0.0057379873 -0.06524179 -0.028611492 -0.028793052
0001a0 43 d2 56 bd 4c 16 aa 3b e8 5c ac 3b e4 56 94 bc
       -0.052446615 0.0051906463 0.0052600987 -0.018107839
0001b0 57 1a 98 ba df fe cd 3b 1b 02 aa bd b4 45 1b bd
       -0.001160453 0.0062864865 -0.08301183 -0.03790827
0001c0 4a 0f 71 bd 56 47 49 bd cc 45 1f bd 4e 0a 9c bd
       -0.05885247 -0.049140297 -0.038884923 -0.07619153
0001d0 c4 40 15 3d 4d 4c 99 bd aa 7d 4a bd c1 47 47 bd
       0.03643872 -0.07485256 -0.04943625 -0.048652414
0001e0 11 89 24 3c 51 ce 1e bc 59 5b 49 3c 60 82 14 3d
       0.010042445 -0.009692744 0.012289845 0.036257148
0001f0 a2 73 90 bd 8c 8b 9e bd 20 00 d5 bb 6a 4f 70 3a
       -0.07053305 -0.0774146 -0.006500259 0.0009167107
000200 d6 53 c3 bc 87 a9 dc 3b eb 26 1c 3d ab 14 6f bd
       -0.023843687 0.0067340764 0.038123053 -0.05836932
000210 bf 75 b6 bc eb 15 04 3d 0f 00 fc 3b cb 78 25 bd
       -0.022272943 0.032247465 0.0076904367 -0.0403984
000220 b2 35 f0 b9 ea 5f 9c bc 55 88 38 3d 47 b5 4b 3a
       -0.00045816373 -0.019088704 0.04505189 0.0007770848
000230 5f 95 05 bd d3 86 c5 bc 85 c7 b5 bc a1 30 58 bd
       -0.032613155 -0.02411214 -0.022189865 -0.05278075
000240 ef 81 84 bd 08 ec 4f bc df 97 44 bd 03 c3 07 3d
       -0.06470095 -0.012690552 -0.047996398 0.033144962
000250 7f 45 c8 bc d4 98 89 bd 7a ba 79 bd c5 f1 04 3d
       -0.0244472 -0.06718603 -0.060968854 0.032457132
000260 b9 43 03 bd 56 71 7e bc aa 8a 52 3c 78 34 78 bd
       -0.032047007 -0.015529951 0.012850443 -0.060596913
000270 ed cc 1b 3d 9a 37 99 bb 50 eb 0e 3c df d7 35 3c
       0.03803723 -0.0046758177 0.008723095 0.011098831
000280 6f 0b 67 bd 8d c6 46 3c 31 bc cc b9 88 fd 9e bd
       -0.05640739 0.012132299 -0.00039050126 -0.07763201
000290 ce cb 6b bd b7 bc 8d 3c 98 7d 1d bd 38 c6 3c bd
       -0.05756741 0.0173019 -0.038449854 -0.046087474
0002a0 04 04 8b bd 97 7b 9b bd 40 2c 7f 3b 35 8c 31 bd
       -0.06787875 -0.07591932 0.0038936287 -0.043346602
0002b0 24 0e 71 bd 22 74 3c 3c 50 d3 34 bc 90 2b 12 3c
       -0.058851376 0.011502298 -0.011036709 0.008921519
0002c0 3c 83 b0 bc f4 ad 24 3d 84 7a 89 bd 8a b1 5a 3d
       -0.021546952 0.040204957 -0.06712821 0.05339197
0002d0 ad ce 78 bb c9 a4 66 bd 0e 98 c2 3b 8f 0f 6a bd
       -0.0037964985 -0.056309495 0.0059385365 -0.057143744
0002e0 53 9a a9 3c e3 17 3a 3c 3c ca 1f bc 14 ed b4 bc
       0.02070347 0.011358234 -0.009752806 -0.022085704
0002f0 7e 1b 97 bc c0 10 31 3d 9e d1 92 bd 1d c2 76 bd
       -0.018445726 0.043228865 -0.071688876 -0.060243715
000300 4d 6a 29 bd d6 27 47 3c 42 c0 be 3b 21 01 94 bd
       -0.041361142 0.012155494 0.0058212588 -0.07226778
000310 13 c7 5e bd 4f 61 13 39 fa 2a 83 bd cd d2 7d 3c
       -0.05438907 0.00014055263 -0.064046815 0.015492153
000320 ef 68 a5 bd 14 0b b3 3c 09 82 95 bd 52 d5 11 bc
       -0.08076655 0.021855868 -0.07300193 -0.008900957
000330 a2 f2 21 3c 7b c1 63 3c 4e 42 ce bb 72 9e e2 3c
       0.009884508 0.01390111 -0.006294525 0.027663443
000340 9d 65 f1 3c 56 cb 6f 3d 72 8c 1f bd 16 10 3e bd
       0.029467398 0.058543526 -0.0389523 -0.04640206
000350 97 ff 0b 3c ed 9f 39 3d ed dd 9f bb 98 5f f5 ba
       0.008544824 0.045318533 -0.0048787505 -0.0018720506
000360 69 e1 e7 3c 60 15 fb bc 61 1e 0a bd 84 3c 02 bd
       0.028305726 -0.03064984 -0.033720378 -0.031795993
000370 cb 2d 75 3b c4 63 c4 3c 60 91 91 3b 44 f3 86 bd
       0.0037411328 0.023973353 0.004442379 -0.06589368
000380 e4 2d 26 bd 6f a9 29 bd 4d b2 7e bd 51 af a9 bb
       -0.04057111 -0.04142135 -0.06218176 -0.00517837
000390 d6 cd 1f 3d fa 4b b7 bc ea 06 92 ba fc a5 da 3c
       0.03901466 -0.022375096 -0.0011140977 0.026690476
0003a0 e8 3d 05 3d 05 21 17 3d 8a 0d c2 bc 40 84 35 3d
       0.03252974 0.036896724 -0.023688097 0.044315577
0003b0 a1 db 49 bd 77 bc 4b bc 80 d3 8b bd fd 98 1e bc
       -0.04928172 -0.01243507 -0.0682745 -0.00968003
0003c0 ba 3b a6 bc 7b 7f 4b 3c a8 cf ac 3c c8 2b 8d bd
       -0.020292152 0.01242053 0.021095112 -0.06893116
0003d0 9c 59 cc bb ed de 51 bd db 9c 12 bd 31 40 14 bd
       -0.006236268 -0.05123799 -0.03579412 -0.03619403
0003e0 df de 98 bd 38 40 2c 3d b2 43 18 bd af 6b 27 3d
       -0.07464384 0.04205343 -0.037173934 0.04087418
0003f0 69 83 02 3c f3 81 6b bd 2a 00 4f bd d4 51 9b 3c
       0.007965901 -0.057496976 -0.050537266 0.018959917

conv_layers.3.bias f4 [64]
000000 e7 66 aa bd 23 fa 29 be 8d 9d ae bd 90 40 28 bd
       -0.08320408 -0.16599326 -0.08526144 -0.041077197
000010 bb 03 a2 bb 79 16 47 be 27 41 03 be 7c 85 4c be
       -0.0049442924 -0.19442166 -0.12817822 -0.19972795
000020 32 65 ca bd c7 7e ce bd 4b d9 0e bc 28 19 00 be
       -0.09882583 -0.100827746 -0.008718799 -0.12509596
000030 66 f2 24 be b5 e9 fc 3d 20 05 63 bd 1c 4e 05 be
       -0.16108093 0.123492636 -0.05542481 -0.13018078
000040 21 3c b3 bd 0c fd 48 bd 14 b0 14 3e 7d eb 42 bd
       -0.08751703 -0.04906945 0.14520293 -0.04758786
000050 6f ff 70 be 25 9a 01 bd ad c1 96 3d ce 75 4f be
       -0.2353494 -0.031641144 0.073611595 -0.20259783
000060 99 9a 38 be ce b4 59 3d d0 a8 01 bc 5b 0c 76 bd
       -0.18027724 0.053150944 -0.007913783 -0.060070377
000070 0c 75 92 bd 8f 45 24 be 4f e8 0a 3c 5e 5c 48 bc
       -0.07151231 -0.1604216 0.008478238 -0.012229053
000080 72 60 19 3a db a7 3f be be 1b 07 be 2e 5b 74 3e
       0.0005850858 -0.18716376 -0.13194177 0.23862907
000090 1f a2 84 3d 9b 2d 5a 3d 31 c4 8c bd 5d fa 70 bd
       0.06476235 0.05326615 -0.06873358 -0.058832515
0000a0 67 7b b0 3d 45 dc 46 bd 41 5e 97 bd 5c de 1d bd
       0.08617287 -0.04854991 -0.073910244 -0.038542137
0000b0 87 e8 83 be 85 2e 9b bd 1f 37 c4 bd 4c 52 6d 3d
       -0.25763342 -0.07577232 -0.09580826 0.057939813
0000c0 8a f0 1b be 7f cd bc bc 59 7c 83 bd 07 dc 77 bd
       -0.15228477 -0.023047207 -0.06420202 -0.06051257
0000d0 8c 5f 24 3c 82 4c 31 3b 45 58 6e bd f5 c0 5f be
       0.010032546 0.002705366 -0.05818965 -0.21850951
0000e0 12 5c 49 bd 43 19 04 be cc 86 4a 3b 74 76 8c bb
       -0.04916007 -0.12900262 0.00309031 -0.0042865817
0000f0 94 cc eb 3c 5f 3e d1 bc 91 b3 24 bd f3 6e 1f be
       0.028784074 -0.025542436 -0.04021031 -0.15569668

conv_layers.6.weight f4 [128, 64, 3, 3]
000000 c0 87 d7 bc 22 3b 03 3d cb 18 a4 bb b3 8c 94 bc
       -0.026309848 0.032038815 -0.0050078384 -0.018133497
000010 d6 db e4 bb c6 59 71 3c 0e 27 a4 bc 5b ea 07 bc
       -0.0069842143 0.014730876 -0.020038154 -0.008295621
000020 eb 39 1d bd c9 e4 ab 3c 9f 75 f1 bb d1 32 28 bc
       -0.038385313 0.020983117 -0.007368758 -0.010266022
000030 5b 75 11 bd f4 80 2a bc f5 94 b7 bc 36 26 75 bb
       -0.03551231 -0.010406721 -0.022409895 -0.0037406809
000040 7b 6a bc 3b 27 6e 0a 3c ce f9 be bc ee cd 93 3c
       0.005749998 0.008449114 -0.023312476 0.01804253
000050 e2 50 de bc 0e 3f 72 bb 18 28 02 bd e3 fb 4d bc
       -0.027138177 -0.0036963853 -0.031776518 -0.0125722615
000060 27 46 23 bd 41 c4 4b bd 09 28 73 3c 70 32 32 bd
       -0.039861824 -0.04974771 0.014841088 -0.043505132
000070 1a 7b 37 bc 36 96 34 bd d0 f2 40 bd 0d a4 54 3c
       -0.011198783 -0.044088565 -0.047106564 0.012978566
000080 a5 fa 1b bd cf f8 63 3c b8 02 0c bc 78 e1 04 3c
       -0.03808083 0.013914301 -0.00854557 0.008110397
000090 94 2a 35 bd db 93 11 3d d5 3b 40 bc d9 a2 3c 3b
       -0.04423006 0.035541397 -0.011733015 0.0028783588
0000a0 9e 7c 59 bc d6 53 b3 3a 7f ad de bc e0 38 29 bd
       -0.01327434 0.0013681601 -0.027182339 -0.041314006
0000b0 b6 ad 91 bb 07 4d 1c bc 29 e3 39 3d de 71 46 bc
       -0.004445757 -0.009539849 0.045382652 -0.012112109
0000c0 29 8e 86 bd 8f cf 03 bd 34 1a e5 bc b4 14 35 bd
       -0.06570084 -0.032180365 -0.027966596 -0.044209197
0000d0 c6 2d 84 bd 6c 3c 86 bd 4c 3c 9d 3c 1c 6d 3b bd
       -0.06454043 -0.06554493 0.01919379 -0.04575835
0000e0 ee b4 df 3c 96 ca 94 3c e6 4a 03 bd c1 27 e8 3c
       0.027307954 0.018163007 -0.03205385 0.028339269
0000f0 61 f1 bc bc 96 63 75 3b de 89 e4 bc 92 90 0f bd
       -0.023064317 0.003744339 -0.027897771 -0.035049982
000100 fb 34 be bc ac dc a8 bb 76 24 ae bc 6b c3 3a bc
       -0.023218622 -0.0051532593 -0.02125762 -0.01139913
000110 81 b3 b3 3c 57 70 81 bc 6b b3 74 3c db 01 95 bd
       0.02193618 -0.015800638 0.014935355 -0.072757445
000120 9a c4 57 bd 41 e9 8a bc 4b 06 30 bd fe 99 48 3c
       -0.05267773 -0.016956927 -0.04297475 0.012243746
000130 f4 ea b0 ba c7 4b 51 3b e8 f0 a8 3c 7e 20 60 3c
       -0.0013497756 0.0031936036 0.020622686 0.013679622
000140 7a 52 48 3c b0 6c 39 bd 45 e5 27 bd f9 db ba 3b
       0.012226695 -0.045269668 -0.040990133 0.0057024923
000150 4b 77 26 bd 8f a5 31 bd af f9 63 bb 49 38 01 bd
       -0.04064111 -0.04337078 -0.0034786274 -0.03154782
000160 e9 e7 30 3d 2c b1 ba 3c e9 96 f9 bc 6a 3e 20 bd
       0.043189917 0.02278956 -0.030467467 -0.039122023
000170 b9 a1 76 bb 6b ea e6 bb 7f 92 8d 3c 84 b8 b9 3c
       -0.0037633015 -0.007046988 0.017281769 0.022670992
000180 35 9b ad 3b e8 9a c4 bc 7d b0 83 3c fe 16 33 3c
       0.005298043 -0.023999646 0.016075367 0.010930775
000190 44 90 cf 3b 6e 9b 67 3c af b2 d1 3c bc c1 3c 3d
       0.0063343365 0.014136178 0.025597898 0.046083197
0001a0 65 e5 71 bd 29 27 02 3d b7 9f 0a b7 82 21 d3 bb
       -0.05905666 0.031775627 -8.2626275e-06 -0.0064432034
0001b0 5e ed 00 bd 35 01 97 bc ef 91 0a bd e4 76 a2 ba
       -0.03147637 -0.018433193 -0.03383058 -0.0012395051
0001c0 a8 45 19 3d c8 27 05 bd 40 a4 5c bd 88 c8 54 bd
       0.037419945 -0.03250864 -0.05386758 -0.051949054
0001d0 16 92 b0 3b 25 c5 18 bc e4 68 96 3c 5a 2a 1f bd
       0.0053885086 -0.009324347 0.018360563 -0.03885875
0001e0 ca 20 b2 3c a2 fe ae bc 77 99 dd bc 03 29 24 bd
       0.02174415 -0.021361653 -0.027050717 -0.040078174
0001f0 ef 2a 23 bd f5 f4 09 bd 4c bc 89 bc 96 82 e0 bc
       -0.039835867 -0.033680875 -0.01681342 -0.027406018
000200 c5 6a 37 3a 01 05 96 bb f5 33 b8 bc 73 32 87 bd
       0.0006996806 -0.004578233 -0.022485713 -0.06601419
000210 de 68 a8 bb a1 d6 bf 3b 38 1c 08 bc 5f c4 d8 bc
       -0.0051394543 0.005854443 -0.008307509 -0.026460825
000220 cb 0c d3 3c 6f 81 3a bd 9f f5 7e 3c 5f 28 3a bd
       0.025762936 -0.045533594 0.01556149 -0.045448657
000230 c3 bd 0d bd cd e2 e4 3a f9 bd 11 bd 74 d2 36 bd
       -0.0346048 0.0017462611 -0.035581563 -0.044634297
000240 24 ed df 3b 49 1e 46 bd 19 d3 9d bd b4 66 8b 3c
       0.0068336893 -0.048368726 -0.07706279 0.017016746
000250 80 c4 6a bc f2 4a 55 bc 9b fa 11 3c a6 b7 34 3c
       -0.014329076 -0.013018357 0.008909847 0.011030113
000260 63 a5 90 bc 88 62 11 3b 6e b9 e0 bc 49 24 5c bc
       -0.017656988 0.0022183973 -0.02743217 -0.013436385
000270 96 74 2a 3d cf 7b 21 3d d2 ff c8 3c 01 4a d0 3c
       0.04161509 0.039424714 0.024536047 0.025425913
000280 2b 2b 06 3d df 0a e1 bc 27 18 13 ba f9 a8 8a 3c
       0.032756012 -0.027471004 -0.0005611204 0.016926276
000290 95 31 25 bd d9 43 b7 3a 1f 31 bd ba 10 a3 f2 3c
       -0.04033049 0.0013982012 -0.0014434195 0.02961877
0002a0 0f 88 83 bc 18 04 1e bd 0c 89 4f bc c3 8c 6b bd
       -0.016056089 -0.038578123 -0.012666952 -0.057507288
0002b0 b6 a1 ad 3a c4 b6 07 3d 7c db de bc 7d a6 2f bd
       0.0013247046 0.033133283 -0.027204268 -0.042883385
0002c0 55 0c 6b bc 09 2c ed ba bf 0e 92 bd 98 60 c8 bb
       -0.014346202 -0.0018094789 -0.07131719 -0.0061150305
0002d0 63 af b7 bc f3 a5 8c 3b f9 67 32 3c 18 95 cd 3c
       -0.022422498 0.0042922436 0.010889047 0.025095508
0002e0 33 56 3a bc 7c 83 e3 bc c0 82 25 bd ae 26 1c bd
       -0.011373091 -0.027772658 -0.040407896 -0.038122825
0002f0 11 3d 75 bd b5 c0 07 bd a0 ec 61 3c 52 bc 9c 3b
       -0.05987269 -0.033142764 0.013789326 0.0047831917
000300 8b 56 2a bd 81 1e 0b bd 50 d8 34 bc ac 64 1a bc
       -0.04158644 -0.033964638 -0.011037901 -0.009423416
000310 01 30 85 bd 5f 49 a5 3c 70 76 ae bb b4 50 41 3c
       -0.06503297 0.020176588 -0.0053241774 0.011799026
000320 c4 7b 8b bb 6f 26 d9 bb 53 e0 e3 bc f4 ae 10 bc
       -0.0042566974 -0.006626896 -0.027816927 -0.008830775
000330 1d 45 d5 bb f9 2d a2 bc 7c b1 3e bd 57 05 29 bd
       -0.006508483 -0.019797312 -0.04655598 -0.041264858
000340 c1 bf ce 3c 7d 7a a8 3b b2 75 a2 bc c1 20 f7 bc
       0.02523792 0.005141555 -0.019831512 -0.030166985
000350 26 85 23 bc 01 93 2f 3c 18 36 89 3c cb 70 01 bd
       -0.0099804755 0.010716201 0.016749427 -0.03160171
000360 60 05 4c bd 74 3f 70 bd 61 cd 5c 3c 37 ea 08 3d
       -0.049809813 -0.058654264 0.0134767005 0.03342649
000370 f1 d6 90 3a 6b d0 97 bd c4 9b 92 3c 2e 24 37 bd
       0.0011050386 -0.074127994 0.01789654 -0.044712238
000380 62 45 0f bd 6e 5c 5f 3c d6 ac a4 3c d3 5b 9b bc
       -0.034978278 0.013632877 0.020101946 -0.018964684
000390 78 df 51 38 76 44 1c bd ba b8 93 bc 5e 29 ac bc
       5.0037605e-05 -0.038151227 -0.01803242 -0.02101582
0003a0 0a c9 8d bb f8 1a a1 bb fc b5 0c bd 84 f8 0a bd
       -0.0043269442 -0.004916545 -0.03435324 -0.03392841
0003b0 8a 35 74 bb 64 1b 9d bb 87 c2 3e 3c 34 7e 6e bc
       -0.0037263357 -0.004794525 0.011643059 -0.014556456
0003c0 e3 5c f4 bb 78 b9 38 bd 16 41 93 3c a6 94 ce bc
       -0.007457362 -0.04509875 0.017975371 -0.025217365
0003d0 f2 88 91 3c 7b 13 7a 3c 04 95 02 bd 53 06 e7 3c
       0.017765496 0.015263434 -0.031880394 0.028201258
0003e0 4a 40 da 3c 75 7f 10 bd 83 9e 40 bd fa ec 96 3c
       0.026641984 -0.035277802 -0.04702617 0.018423546
0003f0 c2 54 0d 3d 8d 94 e4 bc 3d 49 1e bd 01 e7 45 bc
       0.03450466 -0.027902866 -0.038644064 -0.012079001

conv_layers.6.bias f4 [128]
000000 93 57 8e bd 88 74 f6 bd 73 40 27 3c 6f 92 e5 bc
       -0.06950297 -0.12033945 0.010208237 -0.028023927
000010 25 84 5b bc b5 67 75 bd 17 d1 12 be 33 a5 b3 bd
       -0.013398205 -0.059913356 -0.14337574 -0.087717436
000020 2c dd 5f bd 6f d6 eb bb 77 87 65 3d d3 d8 81 bd
       -0.054654285 -0.0071971933 0.056037392 -0.06340184
000030 dc 97 95 3b 54 5d da bc 91 51 d5 bd 8b c6 5c bd
       0.004565222 -0.02665583 -0.10415948 -0.053900283
000040 a5 51 2e be 35 9d db bd 74 9b fa bc 34 af 80 bd
       -0.17023332 -0.10723344 -0.030591704 -0.06283417
000050 9b fa e9 3c e2 49 ad bc 24 d5 e9 bd fb 55 a1 bb
       0.02856188 -0.021153394 -0.114176065 -0.0049235797
000060 65 05 84 bd 5b be 96 bd e1 a0 c0 bc 6d 66 85 bd
       -0.064463414 -0.07360526 -0.023514213 -0.06513677
000070 eb fe 18 be 6d 79 49 bd 13 bc 14 be fb 6b 94 bd
       -0.14940993 -0.049188066 -0.1452487 -0.07247158
000080 59 d9 71 3b 27 3e 05 be 69 78 23 be 4f 57 0a bd
       0.003690323 -0.1301199 -0.15963902 -0.03377467
000090 58 b5 12 be 43 9b 0b be 7d 8e 12 be 84 ff 11 be
       -0.1432699 -0.13633446 -0.14312167 -0.14257628
0000a0 a3 9b 2a bd c1 01 36 bd a4 0b af 3d 7f bd f2 bd
       -0.041652333 -0.044435266 0.08547142 -0.1185255
0000b0 ac fe cd bc d7 75 9d bd f7 1e 03 3c 7c a0 25 be
       -0.025145851 -0.07688492 0.008002988 -0.16174501
0000c0 07 98 fa bd e4 d3 ca bd 99 43 ed ba 61 c7 31 be
       -0.12236028 -0.09903696 -0.0018101811 -0.17361213
0000d0 1a 9a 96 bb f7 06 e2 bc 9d d9 0d 3d cb 35 fd bc
       -0.004596007 -0.027591212 0.03463136 -0.03090944
0000e0 71 67 22 bd 72 4b 09 be 52 d6 60 3d 65 fe 8e bd
       -0.03964943 -0.13407686 0.05489189 -0.06982116
0000f0 3b d0 cb bd b4 ee 1d be b5 49 34 bd 76 45 ad 3d
       -0.09951826 -0.1542309 -0.044015605 0.08460514
000100 36 55 bb bd f3 69 e6 3a 0b a1 e5 bd fc f6 95 bd
       -0.09147112 0.0017579183 -0.11212357 -0.07322499
000110 b8 45 bc bc 5b c8 bf 3d b3 17 4b be 3e a2 87 bd
       -0.022982463 0.09364387 -0.1983326 -0.06622742
000120 a5 37 47 bd fa 76 81 bb 31 59 8b bc 32 e4 8d bd
       -0.04863705 -0.0039509507 -0.017010303 -0.069282904
000130 47 84 db bd 6d ac b0 bd ee cf 26 be 9f ac ef bd
       -0.10718589 -0.086266376 -0.16290256 -0.11702847
000140 0d 36 61 be 67 75 d6 bb f0 93 89 3b ad 82 4c 3c
       -0.21993275 -0.006544757 0.0041985437 0.012482327
000150 f1 62 13 be f7 3b 44 3b 19 3f d1 bd 9d 0f 4a be
       -0.14393212 0.0029942968 -0.10217113 -0.19732518
000160 5c dd 01 bd b3 89 1e be 1d 7f 83 bd b6 ee 5a be
       -0.031705245 -0.15482216 -0.06420729 -0.21380123
000170 b5 8f 85 bc 32 8b 56 be 44 89 39 bd 6a ca cc bd
       -0.016303876 -0.20951536 -0.045296922 -0.09999545
000180 48 53 52 bd ae 18 20 bd f6 8d a9 bd 7a b5 70 bd
       -0.051348954 -0.039086036 -0.0827903 -0.05876682
000190 09 93 d4 bd 28 71 6b be fb 27 d6 bd ba bd 8e bd
       -0.10379607 -0.22992384 -0.104568444 -0.06969781
0001a0 43 65 04 bc 83 b4 53 bc 9e 6c dd bd bb 2b 0d bd
       -0.008080783 -0.012921455 -0.10811733 -0.034465533
0001b0 4d 4e 91 bd fb 68 af bd 60 de 5d bd f1 60 0c be
       -0.07095013 -0.08564945 -0.05416715 -0.13708855
0001c0 64 3a 4c bd c3 ca cd bd f0 e7 14 3d 65 a7 e0 37
       -0.049860373 -0.10048439 0.036354005 2.678083e-05
0001d0 15 df 2b be cb 63 52 bd b2 2a 5d be 09 10 31 bd
       -0.16784318 -0.0513647 -0.21598318 -0.043228183
0001e0 e6 4d 8c bd f6 22 57 be e5 1c 4d bd 2e e0 03 be
       -0.068507954 -0.2100943 -0.050076384 -0.12878487
0001f0 35 d5 58 be e3 4e 37 bd b8 03 2a bd d2 32 af bd
       -0.21175082 -0.044752967 -0.041507453 -0.08554615

fc_layers.1.weight f4 [128, 512]
000000 55 9f fb 3c 53 f9 24 bd 0d 9a fc 3c de e6 0f bc
       0.030715624 -0.040276837 0.030835176 -0.00878307
000010 a3 50 ae be 8c f5 16 3e 92 a8 34 be 3d fa b0 bc
       -0.34045896 0.14742106 -0.1764243 -0.021603698
000020 f1 07 c6 be 7d b7 63 3d 49 6e f8 be cf 2f 88 bd
       -0.38677934 0.05559491 -0.4852164 -0.06649744
000030 e3 cb 09 bd 5c 2e b0 bc b1 5b 6d bc 6f 6f a1 bc
       -0.033641707 -0.02150648 -0.014487193 -0.019706456
000040 08 6b 21 bd 6a 12 74 ba 3b e0 d2 bd 69 c1 41 bd
       -0.039408714 -0.0009310605 -0.10296675 -0.04730359
000050 b8 ba 0a be f1 9e 1b bd b4 43 11 be 6d 51 45 be
       -0.1354779 -0.037993375 -0.14185983 -0.19269343
000060 f2 5d 56 3d e4 d3 41 3e 3f b3 3c bd 83 49 72 be
       0.052335687 0.18928486 -0.04606938 -0.23660855
000070 2f e4 bf 3e 0f 40 dc 3d ae 25 9b bd 8c f4 0f 3e
       0.37478778 0.10754406 -0.07575546 0.14058131
000080 ac eb bc bc de 53 af 3c 9a 9e 6c bc 0a 40 a2 3c
       -0.023061596 0.021402296 -0.01444211 0.019805927
000090 a8 e5 ba 3d 26 1f 1d be 49 4f ad 3d b1 de 11 bd
       0.09125835 -0.15343913 0.08462388 -0.035612766
0000a0 30 62 e5 bc 3b 0f c8 be b2 a6 f9 bd 1e 7e 43 be
       -0.028000921 -0.3907412 -0.12189998 -0.19091079
0000b0 42 1f a6 3b a4 03 3c 3d 60 6e 51 3d fa 18 ee bc
       0.005069644 0.04590191 0.051130652 -0.029064644
0000c0 6a 11 89 3c 45 a1 65 3c 38 7f 2d bb 9d 32 27 3c
       0.016731936 0.0140155 -0.0026473533 0.010204938
0000d0 0c a8 5c bd 3d 1f 8e 3d 7d 91 26 3d 6d b1 d1 3e
       -0.0538712 0.06939552 0.040666092 0.40955678
0000e0 db cd b8 3e 50 bb ae 3e 86 b8 d7 3b ee 47 85 3e
       0.36094555 0.34127283 0.006583276 0.2603144
0000f0 17 7c 60 3e 61 0b 29 3e 0f b3 68 3c 6f 00 08 3e
       0.21922337 0.16508247 0.014202847 0.13281415
000100 a5 74 ae bd 51 28 5a bd 46 cd b7 3d 97 b8 2d 3e
       -0.08518342 -0.053261105 0.089747 0.16964947
000110 90 08 c2 bd 70 2d fe bd 5f fb 6a 3e 7b 49 42 3e
       -0.094742894 -0.1241101 0.22947453 0.18973343
000120 37 12 7a bc a3 11 af bc d2 63 3c 3d 2c 1d 88 3d
       -0.015263132 -0.021370715 0.045993634 0.06646189
000130 d5 c9 db bc ed a5 5f bc a4 72 f9 3c e0 92 aa 3b
       -0.02682964 -0.0136504 0.030450173 0.005205497
000140 da 28 49 39 f6 ff ca bb 35 1d 36 ba e8 f0 f6 b9
       0.00019184072 -0.0061950637 -0.0006947101 -0.00047100266
000150 7e b1 ed 3b 28 b5 59 bc 5a 26 9f bc 05 be fe 3c
       0.0072538247 -0.01328782 -0.019427467 0.031096468
000160 3f 77 8a 3e 2d a9 a3 3d 84 6b 51 3e d3 b6 5d 3e
       0.27044103 0.07991252 0.2045117 0.21651773
000170 5b 90 da bc d5 59 16 bc ee 8f 81 3d 30 b9 0c bd
       -0.026680162 -0.009176691 0.063262805 -0.034356296
000180 06 96 33 be d7 b0 35 be e5 51 4b 3e b8 b1 a7 3e
       -0.17537698 -0.1774324 0.19855459 0.32752776
000190 73 21 b8 3c a0 83 c1 ba f3 eb 03 3d 43 6e 97 3b
       0.022476887 -0.0014763959 0.03220744 0.0046212985
0001a0 10 02 91 3c cf ab 0f be 0d ac a5 3d 75 d5 2c bc
       0.017701179 -0.14030384 0.08089457 -0.010548939
0001b0 b2 4e 05 bc 5d 56 23 3c 32 c4 bb bc 96 cc a6 3a
       -0.008136438 0.009969321 -0.022920702 0.0012725766
0001c0 bb af 06 be ec 41 e4 bd 52 a9 89 be 6a 04 01 3d
       -0.13152973 -0.11145386 -0.26886994 0.03149835
0001d0 18 77 89 bc 79 7d ba 3b e4 48 bd 3c d6 cb 21 bd
       -0.016780421 0.005691227 0.023106046 -0.039501034
0001e0 e8 88 24 3f 60 5b 92 3e 90 4f 5c 3d 11 e3 c9 bd
       0.642714 0.2858534 0.053786814 -0.098577626
0001f0 03 f3 e3 3e 76 64 65 3e 9f 2f 4e 3d 20 8d 32 bd
       0.4452134 0.22401604 0.050338384 -0.04359162
000200 07 1d c5 3d 05 8c 1c bf 67 03 14 3e 21 b6 84 be
       0.09624677 -0.6115115 0.14454423 -0.25920203
000210 b9 32 1d be a0 0f 03 be 53 81 6f bd ad b3 53 be
       -0.1535138 -0.12798929 -0.058472943 -0.2067401
000220 94 dc e7 bd 47 e9 90 3d 30 6a 0d be ea 23 56 3e
       -0.11321369 0.07075744 -0.13810039 0.20912138
000230 2f ae e4 3c 19 88 07 3d 0d 82 f4 3c d5 40 6f 3d
       0.027915088 0.033088777 0.02984717 0.058411438
000240 dd e3 0c bf 14 16 bd 3d 87 ad 92 be e8 74 86 bd
       -0.5503519 0.09232727 -0.28648016 -0.06565267
000250 b7 bc 00 3f ba 5f 9d bd bc 71 a9 bd 9e c0 2a 3c
       0.50287956 -0.07684274 -0.08273646 0.0104219
000260 3c 6a d0 bd b7 22 c5 3d 8c 0e 14 3c 5b 91 54 3e
       -0.101765126 0.09625762 0.009036671 0.20758574
000270 30 c8 81 3e 33 7a 8d 3d d6 ba 83 3e a9 33 fd bd
       0.25348043 0.06908073 0.25728482 -0.12363369
000280 06 e0 9d 3c 1f 6f 0f 3b 1f d3 31 3c 02 ec 69 3d
       0.019271862 0.0021886302 0.010853558 0.05710984
000290 35 7f 49 3d a0 67 44 3d 87 e3 c4 bc b3 b8 a6 3c
       0.04919358 0.047950387 -0.024034275 0.020351743
0002a0 82 61 e4 3e 37 90 62 bd 62 04 71 3e 33 67 d5 bc
       0.44605643 -0.055313315 0.23536828 -0.026050186
0002b0 73 d6 55 3e 9f 75 0b 3e 6f d5 64 3d 0c c0 9c bd
       0.20882587 0.13619088 0.05586761 -0.076538175
0002c0 f8 ea 84 bc d5 4a 02 bc d8 29 c3 3c d1 28 4c 3d
       -0.016225323 -0.007952412 0.023823664 0.049843613
0002d0 89 19 20 3d 8a c8 b4 bc c8 cb 00 bd 92 18 44 3c
       0.039086852 -0.02206828 -0.03144434 0.011968749
0002e0 f6 87 00 bd 0b 15 83 3b d0 2d d2 bb 27 f7 3f 3c
       -0.031379662 0.0040003113 -0.0064141527 0.011716641
0002f0 ca dc dd 3e df e1 b0 3e 71 1d ae 3c 74 86 8c 3e
       0.4333251 0.34547326 0.021254273 0.2744633
000300 3e 03 2e 3d cb 38 2b 3e 33 21 c0 bd 20 7a 7e be
       0.04248356 0.16720884 -0.09381332 -0.24851274
000310 cd 23 66 3d 33 40 81 bc d4 1c 57 3d 1f 84 7d 3e
       0.056186486 -0.015777683 0.052517727 0.24757431
000320 fe ff 26 bc 38 b5 bd 3c c9 2d 1c bd 1e b3 ef bc
       -0.010192869 0.0231577 -0.0381296 -0.029260214
000330 94 cb 5f 3d 68 d4 4b bd 9d ec 65 bd 7c f5 92 bd
       0.054637507 -0.049763113 -0.056133855 -0.07175729
000340 23 73 17 bd 5d 1c 06 3b ae 50 e5 3b c8 64 26 3d
       -0.036975037 0.0020463683 0.006998143 0.040623456
000350 12 bd 5a bc 4f 5f cb 3c 4a 83 1c bc cd 0e 3c bc
       -0.013350742 0.02482572 -0.009552786 -0.011478138
000360 86 10 d0 bd f7 df b4 3d 4b ef a4 3c a9 fc 9b bd
       -0.101594016 0.088317804 0.020133635 -0.076165505
000370 65 e7 dd bc fe 5b c9 3c af 17 7a bc b7 03 a4 bc
       -0.027087877 0.024579998 -0.015264436 -0.020021303
000380 a0 56 15 bd b8 14 53 3c 6a c2 35 3c c6 6e 85 bd
       -0.036459565 0.012883358 0.011093715 -0.06515269
000390 44 06 47 3e d8 66 ac 3e 74 e2 c7 bd 0d 93 5b 3d
       0.19435984 0.33672214 -0.097599894 0.053607035
0003a0 87 e0 4d 3d 62 f8 d9 be 68 82 40 be 4b 06 ce be
       0.050262954 -0.42572314 -0.18799746 -0.40239176
0003b0 59 98 37 bc 12 1a 05 3d 83 0b c8 bb 65 c7 7c 3c
       -0.011205756 0.032495566 -0.006104888 0.015428399
0003c0 6d 2a 43 3e 69 4d 09 be b1 1f 29 bd f9 47 cc bd
       0.19059153 -0.13408436 -0.04128999 -0.09974665
0003d0 3a 9e fe bd 66 a8 a1 be 54 a4 78 be 02 7f 9e be
       -0.12432523 -0.3157379 -0.24281436 -0.30956274
0003e0 e7 83 81 bc 57 34 dd bb d6 24 30 3d b5 7c 34 3c
       -0.015809966 -0.006750624 0.04300388 0.011016061
0003f0 a4 d9 fa bb 0c 02 96 be 71 84 77 bd 4c a7 87 be
       -0.0076553393 -0.29298437 -0.06042904 -0.26494825

fc_layers.1.bias f4 [128]
000000 31 51 06 be 50 3b 9c bd ce 37 a7 3d 95 1b 09 bd
       -0.1311691 -0.076285005 0.08164941 -0.03347357
000010 2b ed 5a 3e 4f 83 6c be e2 ba 46 3c 6b 51 db bc
       0.21379535 -0.23096965 0.012129517 -0.026772222
000020 e0 5e e1 bd 64 0a 76 bd 4d 20 03 be 22 28 14 3d
       -0.11004424 -0.060068503 -0.1280529 0.036171086
000030 8c b6 4e 3e c4 b5 be bc a9 43 ff bc 5c 59 3e bd
       0.20186824 -0.023280032 -0.031160193 -0.04647194
000040 d5 92 ae bd 21 9c 25 3d ce 37 a2 3d bb 9a f1 bc
       -0.085241 0.0404321 0.079208 -0.029492727
000050 45 7d 86 3d 05 ad 16 be a4 db 81 3c eb f0 21 be
       0.06566862 -0.14714439 0.015851803 -0.15814559
000060 f9 1c 32 3e 93 95 d8 3c 50 62 41 be 7f 6b c5 3d
       0.17393865 0.02643851 -0.1888516 0.09639644
000070 62 4f 99 bd 57 dc 4a bc 59 38 04 bd 8f 18 25 3d
       -0.07485844 -0.012381635 -0.0322803 0.040306624
000080 ec 08 8f 3d af ee 39 3d 94 ca 8b be 99 df a0 bb
       0.069841236 0.045393642 -0.27302992 -0.0049094674
000090 06 bd 8a 3c 95 2a 05 be 44 e7 a2 3d 8a 7f 09 3d
       0.016935837 -0.13004525 0.07954267 0.033568896
0000a0 26 63 78 be 69 93 c4 bc ce 06 78 be 99 fa 3b bd
       -0.24256572 -0.023996072 -0.24221346 -0.045893285
0000b0 3e a4 61 3e d8 b3 18 3e 1a c4 dd 3c f2 69 a5 bc
       0.2203531 0.14912355 0.027071048 -0.02019212
0000c0 cc 58 94 3d aa 88 de bc cc 85 04 3d 56 0a 82 3d
       0.07243499 -0.027164776 0.03235416 0.06349628
0000d0 e5 25 b3 3c 29 a7 56 bd ce 02 1d be 9d 95 d1 bd
       0.021868655 -0.05240551 -0.15333101 -0.102336146
0000e0 bf fb db bb 64 ae c5 bd ea 95 7f 3e 09 7c ae bc
       -0.00671336 -0.09652403 0.24959531 -0.021299379
0000f0 2f 9f e9 bd 26 ac 60 3d 3e 23 0e be 0e 6f 82 3d
       -0.11407315 0.054851674 -0.13880631 0.06368838
000100 33 51 1a 3e 60 a9 fa 3d 76 50 75 bc 8c a9 06 be
       0.15070038 0.12239337 -0.014972797 -0.13150615
000110 6b b8 88 bd 37 52 ed 3d 7a 07 0c 3e 85 6d ba bc
       -0.066758 0.11587947 0.13674727 -0.022757301
000120 35 9e f3 3d 1f 32 fc bb 74 a8 60 bd 35 53 ed bc
       0.1189541 -0.0076964046 -0.05484815 -0.02897034
000130 1e 28 0f bd 38 2f d0 bd 1a a5 fc 3b e2 06 07 3e
       -0.034950368 -0.10165256 0.0077101113 0.1318622
000140 ec a6 57 3d 6f 29 01 3e 5c 59 53 3e 64 1f f6 bd
       0.052649423 0.12613462 0.20639557 -0.12017706
000150 1d d6 8e bd 42 c9 bb 3d c8 1a 0d 3e e8 8c 41 3d
       -0.069744326 0.09169246 0.13779747 0.04725352
000160 e1 7a 32 bd 74 cc ec bd dc b4 4f 3a b4 4d 9d 3c
       -0.043574218 -0.11562434 0.00079233735 0.01920209
000170 65 f0 d5 bd 74 a2 f4 3d 5b 15 a5 3d 2c da f0 bc
       -0.10446242 0.11945048 0.08060714 -0.029400907
000180 ba 6b 08 3e bd 03 a8 3d f0 e5 99 3d 6a 4a 8d bd
       0.13322344 0.08203838 0.0751456 -0.06898959
000190 f6 ce ef bc ca af 9d 3d 84 df 1e 3e 1e 6c 5d bc
       -0.029273491 0.07699545 0.15514952 -0.013514547
0001a0 6e 89 a7 bd bc 08 31 bd 99 d1 91 bb 9a 6c 5b 3c
       -0.081805095 -0.04322122 -0.004450035 0.013392592
0001b0 a6 15 89 3d 2c 77 40 3d e9 1f 0e be a3 24 00 3e
       0.06693582 0.04698865 -0.1387936 0.12513976
0001c0 41 07 a7 3c b4 1f 29 3e 4e af 3c bc df a8 a4 bc
       0.020389201 0.16516 -0.011516405 -0.020100055
0001d0 c5 07 e8 3c fd 7b 61 bd 37 30 0e 3e 87 a6 55 3d
       0.028324017 -0.055049885 0.1388558 0.052160766
0001e0 df 01 6c 3d 22 50 c3 bd 30 43 f5 3d 87 9b 96 3c
       0.057618972 -0.095367685 0.119757056 0.018384708
0001f0 1a 9c 84 be c4 cf 97 3e b1 18 87 be c2 4f 37 3d
       -0.25900346 0.296507 -0.26386026 0.044753797

fc_layers.4.weight f4 [35, 128]
000000 90 02 0b be 6f c5 e0 3e 1c 66 28 3e 22 7f 51 bf
       -0.13575196 0.4390063 0.16445202 -0.81834614
000010 35 9b c5 3e cb 03 d2 be 5d fa b4 3c 3c ab 85 be
       0.38594976 -0.4101852 0.022092039 -0.26107204
000020 3b c7 90 3e 7e c4 ab be c7 3c b0 3e d9 79 41 3e
       0.28277 -0.3354835 0.3442137 0.18894137
000030 38 f7 74 3e 1a 91 5f be 56 9a b9 3e 18 f8 77 3e
       0.23922431 -0.21832696 0.3625056 0.24215734
000040 12 39 af 3e e2 84 f8 3e 68 3e ff be 3e a7 c9 be
       0.3422323 0.48538882 -0.498523 -0.39385408
000050 9f 27 a9 be 5d 14 16 bf 27 7e 6b 3e fb 6c 78 3e
       -0.3303804 -0.5862482 0.22997342 0.24260323
000060 5a bf d0 be f3 f9 83 be 99 a2 13 bf be 23 86 be
       -0.4077099 -0.25776634 -0.5766998 -0.26199144
000070 21 e4 82 be cf 5c 63 be 2a bb 21 bf 22 c3 83 be
       -0.25564674 -0.22203372 -0.63176215 -0.25734812
000080 52 87 c8 3e 0f be 10 3e cc d6 83 bd 13 87 43 3e
       0.3916574 0.14135002 -0.06437454 0.19094495
000090 2e 09 44 3e e3 c8 f5 be 9c 7c a9 3e 33 45 c4 3e
       0.19144127 -0.48004827 0.33102882 0.38334045
0000a0 8a 12 85 3e 85 d1 9c 3e f8 c1 c1 be 12 53 9b 3e
       0.25990707 0.306286 -0.378433 0.30336815
0000b0 40 7c 68 3e 5d ab af be 7a 9c ad be 81 02 d3 be
       0.22703648 -0.34310427 -0.33908445 -0.41212848
0000c0 7e f9 80 bd e5 3d d3 be e4 f3 ff 3e 99 b8 98 be
       -0.06297587 -0.4125816 0.4999076 -0.29828337
0000d0 20 3f 8b 3d f0 cd ba 3e 67 5b 83 3e 1a 3d 05 3f
       0.067991495 0.36485243 0.25655672 0.5204636
0000e0 79 15 bf 3e d9 0b 98 be d0 20 c9 3e 20 89 e7 3e
       0.3732107 -0.2969654 0.39282846 0.45221806
0000f0 04 d8 bf 3e a3 dc 49 be b5 f9 7b 3d 57 0b 9c be
       0.37469494 -0.19713072 0.061517436 -0.30477402
000100 a3 92 8f be 80 0d f1 be 24 04 92 3e a0 e3 01 3f
       -0.28041562 -0.47080612 0.28518784 0.50737953
000110 e1 d3 3a 3e 0b 74 ae be 6e 62 30 3f 23 5e c1 be
       0.18244888 -0.3407291 0.6890019 -0.37767133
000120 a0 c8 fb be 07 33 02 3f d9 a0 61 be 61 04 9d 3e
       -0.49176502 0.5085911 -0.22034015 0.30667403
000130 40 0e e5 3e 08 8e 4e be 0d 39 a1 3e 35 76 6e be
       0.44737434 -0.20171368 0.3148884 -0.2328728
000140 74 d1 7a 3e 6b b9 d0 be 81 c8 d3 3c 58 d5 d6 3e
       0.24493963 -0.40766463 0.025852444 0.41959643
000150 2e 6a b4 3e e8 cf 1c 3e a1 8e 5a 3d de 9b b7 be
       0.3523726 0.15313685 0.053358678 -0.35861105
000160 8a a9 fb 3d 06 a5 59 3e 84 0b 7d be d9 10 c7 3e
       0.122881964 0.21254358 -0.24711424 0.3888004
000170 01 c3 67 be 2c 85 67 be 01 26 d0 be 05 bf b5 be
       -0.22632982 -0.22609395 -0.40653995 -0.354973
000180 75 16 60 3f bf 46 a1 3e b7 d4 ef be 1b 6c 30 3e
       0.87534267 0.31499287 -0.46841976 0.17228739
000190 eb e3 4e 3e 3d f5 23 bf 30 a9 84 be 85 60 5e 3e
       0.20204131 -0.6404608 -0.2591033 0.21716507
0001a0 bb 32 de 3d d4 8c a1 be 94 d8 e3 3e cf 5d 34 3e
       0.1084952 -0.31552756 0.44501173 0.1761391
0001b0 11 35 bb be cb 98 b9 be d6 2c d3 3e 6c 04 98 3e
       -0.36563924 -0.36249384 0.41245145 0.29690874
0001c0 18 5f a4 3e 4f 7f cf 3e ed 02 80 3e 44 19 9c 3e
       0.321038 0.40526816 0.25002232 0.30488026
0001d0 a5 67 c2 be 82 41 5a 3f 8d 9b 1f bf ee b5 38 be
       -0.379697 0.85256207 -0.62346727 -0.1803815
0001e0 15 e9 09 3f 62 fc 99 be b3 c4 61 be 56 32 b0 3e
       0.5387128 -0.30075365 -0.22047691 0.34413403
0001f0 ce 9f 9d be e7 47 d6 bd f2 dc b7 3e 81 f8 d1 3e
       -0.30785984 -0.10462933 0.35910755 0.41009906
000200 11 e2 9b be 5e cb 99 be 1f 40 c8 3e be b7 46 3d
       -0.30445912 -0.3003797 0.3911142 0.048515074
000210 35 c8 9b 3e 2a fb aa be 05 49 f4 3e fc e4 0e 3e
       0.30426183 -0.33394748 0.4771196 0.13954538
000220 0a 11 25 be 40 5b 9a be f4 fc aa be e6 a6 7a bf
       -0.16119781 -0.30147743 -0.33396113 -0.97910917
000230 f5 e0 3c 3e 0b f0 b2 bd 5a 01 51 be 76 b1 25 bf
       0.1844519 -0.08737191 -0.20410672 -0.6472391
000240 20 4a 55 be ef 0f 6e 3c 15 6a 81 3e a0 f5 4f be
       -0.20829058 0.014530166 0.25276247 -0.20308542
000250 20 07 5f be d1 ce 56 be 51 1d 5b 3e d3 d1 da bd
       -0.21780062 -0.20977332 0.21397902 -0.10684552
000260 7a 2e a9 3d a0 da c7 3e 9a 19 2a be 66 17 d4 3e
       0.08260818 0.39033985 -0.16611329 0.41424102
000270 6d 27 17 bf 20 79 0e 3f 90 af 9c 3d bb b6 58 3e
       -0.59044534 0.5565357 0.076506734 0.21163456
000280 e1 e8 b4 3e 82 e1 58 be bb 8b 00 bf 31 cb a5 3e
       0.35333923 -0.21179774 -0.5021321 0.32381585
000290 14 bf 18 bf 5a 68 c6 be 97 7d 8b 3e 0e 9f 0a 3f
       -0.5966656 -0.3875149 0.27244255 0.5414895
0002a0 1a 6e 8b be 5a 75 34 be d1 fe d3 be 3b 08 6f be
       -0.27232438 -0.17622891 -0.41405347 -0.23342983
0002b0 52 b5 e5 3e bd e5 e4 3e db a6 55 3e 80 ac 20 bd
       0.448649 0.44706526 0.20864432 -0.03922701
0002c0 d2 5a ad 3e 07 3d 05 bf 32 e2 e0 3e 1c 1b 8b 3e
       0.33858353 -0.52046245 0.43922573 0.2716912
0002d0 7f 99 22 3e 28 71 c8 be 67 a7 c6 be 4f 3c a1 bd
       0.15878867 -0.3914883 -0.38799593 -0.07872831
0002e0 a2 b4 68 3e 8c e2 83 be 08 04 d5 3e 6f 52 60 3e
       0.22725156 -0.2575878 0.41604638 0.21906446
0002f0 43 2c 05 bf 5f b9 6a be 85 1b 2e be c1 7b 29 3e
       -0.52020663 -0.22922276 -0.17002685 0.16551115
000300 31 c5 d4 3e 0a 59 32 3e df 9f a5 be f1 49 8f be
       0.41556695 0.17416778 -0.32348534 -0.279861
000310 4f 65 57 be 6c ce d1 3e 44 5b 9b 3e 65 a9 95 3e
       -0.2103474 0.409778 0.30343068 0.292308
000320 5f 1d 88 3e 31 51 6f be 7e d6 24 be 61 33 d1 be
       0.26584908 -0.23370816 -0.16097447 -0.40859511
000330 c4 2b b6 be a9 f4 4c be a2 4e b8 be 74 63 44 3e
       -0.35580266 -0.20015205 -0.35997492 0.19178563
000340 7e 6f a3 3d 9d bc 6f be 9f 98 8b 3e ba c3 08 bf
       0.0798025 -0.23411794 0.27264878 -0.53423655
000350 ef e1 fa be f5 b5 00 3f df fa c1 3e d3 a1 c5 3e
       -0.490005 0.50277644 0.37886712 0.38600025
000360 e1 78 14 be 34 48 4a be fb cc 01 3e e3 98 8a be
       -0.14499237 -0.19754106 0.1267585 -0.27069768
000370 f3 9e 00 3d b1 0f a0 3e 2c d0 64 3e 40 71 06 3e
       0.031401586 0.31261972 0.22345036 0.13129139
000380 16 8d c2 3e fa 92 a3 3e 16 50 be 3e b9 9d 29 bf
       0.37998265 0.31948072 0.37170476 -0.6625629
000390 ab 00 19 be 23 e2 aa 3e 5c d9 c3 3e 30 dc aa 3d
       -0.14941661 0.33375654 0.3825177 0.08342779
0003a0 b7 03 0f bf 6e e8 ac be 17 5a 40 bf 0b 96 16 be
       -0.55865043 -0.3377108 -0.75137466 -0.14705674
0003b0 2b 5c 00 3f 43 6c 1e 3e 2b 3b 66 be d4 24 96 3e
       0.5014064 0.15470986 -0.22483508 0.29324973
0003c0 ed e8 fa be be 4f 97 3e cc 6f 89 be eb e5 09 bf
       -0.49005833 0.29553026 -0.26843107 -0.5386645
0003d0 99 91 87 be f0 49 22 3f cd 51 5d 3d ef f7 19 3e
       -0.2647827 0.6339407 0.05403309 0.15035985
0003e0 82 2e 8d 3e a9 ad 11 be 3a f8 a3 3e 6b 16 20 3d
       0.27574545 -0.14226402 0.3202532 0.03908388
0003f0 f9 f5 39 be a2 ae c1 3e 9d ce 8d be d9 83 cc 3e
       -0.18160237 0.37828547 -0.27696696 0.39944342

fc_layers.4.bias f4 [35]
000000 db c3 84 bd 47 bd df 3d 3e c6 e3 bd 9e a0 f5 be
       -0.06482669 0.10924774 -0.11121796 -0.47974104
000010 a0 c2 71 3d 72 1f 3a bd c2 a3 48 bd d9 65 3d bd
       0.0590235 -0.045440145 -0.048984297 -0.046239708
000020 60 4f 78 bd b8 c3 85 be 24 68 36 3e 3c 6b 09 3d
       -0.060622573 -0.26125884 0.17813164 0.033549532
000030 13 d4 93 3d 0a 69 19 3e 8b 53 92 bc 3e 24 15 be
       0.07218184 0.14981475 -0.017862102 -0.14564607
000040 aa 69 23 3e a3 44 a1 bd 6b 37 91 bd de 26 86 bc
       0.15958276 -0.078744195 -0.07090648 -0.016375955
000050 bd 23 c6 bd fc 1e 95 3e 9f e8 b5 be 1e ac 00 3e
       -0.09674785 0.29125202 -0.35529038 0.12565657
000060 b8 39 b8 3d 32 44 31 bc cb b7 14 3e 9d a5 8e bd
       0.08995384 -0.010819482 0.14523236 -0.06965182
000070 e8 8e 26 3e 77 c9 81 3d c5 40 a4 3d de 96 8c be
       0.16265452 0.063372545 0.08020166 -0.27458853
000080 34 e2 e0 bd bb ee aa 3e 56 cc 62 be
       -0.10980645 0.33385262 -0.2214826
